Model: "sequential"
_________________________________________________________________
 Layer (type)                Output Shape              Param #   
=================================================================
 lstm (LSTM)                 (None, 64)                17664     
                                                                 
 dense (Dense)               (None, 4)                 260       
                                                                 
=================================================================
Total params: 17,924
Trainable params: 17,924
Non-trainable params: 0
_________________________________________________________________
Number of validation simulations : 50
Length of inputs : 50
Evaluation distance : 50
Weighted absolute percentage error of I at future time step 50 : 25.77%
Actual and predicted values of I at future time step :
[[ … Model: "sequential_1"
_________________________________________________________________
 Layer (type)                Output Shape              Param #
=================================================================
 lstm_1 (LSTM)               (None, 128)               68096

 dense_1 (Dense)             (None, 4)                 516

=================================================================
Total params: 68,612
Trainable params: 68,612
Non-trainable params: 0
_________________________________________________________________
Number of validation simulations : 50
Length of inputs : 50
Evaluation distance : 50
Weighted absolute percentage error of I at future time step 50 : 23.24%
Actual and predicted values of I at future time step :
[[ … Model: "sequential_2"
_________________________________________________________________
 Layer (type)                Output Shape              Param #
=================================================================
 lstm_2 (LSTM)               (None, 128)               68096

 dense_2 (Dense)             (None, 64)                8256

 dense_3 (Dense)             (None, 4)                 260

=================================================================
Total params: 76,612
Trainable params: 76,612
Non-trainable params: 0
_________________________________________________________________
Number of validation simulations : 50
Length of inputs : 50
Evaluation distance : 50
Weighted absolute percentage error of I at future time step 50 : 21.23%
Actual and predicted values of I at future time step :
[[… Model: "sequential_3"
_________________________________________________________________
 Layer (type)                Output Shape              Param #
=================================================================
 lstm_3 (LSTM)               (None, 128)               68096

 dense_4 (Dense)             (None, 128)               16512

 dense_5 (Dense)             (None, 64)                8256

 dense_6 (Dense)             (None, 4)                 260

=================================================================
Total params: 93,124
Trainable params: 93,124
Non-trainable params: 0
_________________________________________________________________
Number of validation simulations : 50
Length of inputs : 50
Evaluation distance : 50
Weighted absolute percentage error of I at future time step 50 : 12.40%
Actual and predicted values of I at future time step :
[[… Model: "sequential_4"
_________________________________________________________________
 Layer (type)                Output Shape              Param #
=================================================================
 lstm_4 (LSTM)               (None, 50, 128)           68096

 lstm_5 (LSTM)               (None, 64)                49408

 dense_7 (Dense)             (None, 64)                4160

 dense_8 (Dense)             (None, 4)                 260

=================================================================
Total params: 121,924
Trainable params: 121,924
Non-trainable params: 0
_________________________________________________________________
Number of validation simulations : 50
Length of inputs : 50
Evaluation distance : 50
Weighted absolute percentage error of I at future time step 50 : 14.85%
Actual and predicted values of I at future time step :
[[ … Model: "sequential_5"
_________________________________________________________________
 Layer (type)                Output Shape              Param #
=================================================================
 lstm_6 (LSTM)               (None, 50, 128)           68096

 lstm_7 (LSTM)               (None, 64)                49408

 dense_9 (Dense)             (None, 128)               8320

 dense_10 (Dense)            (None, 64)                8256

 dense_11 (Dense)            (None, 4)                 260

=================================================================
Total params: 134,340
Trainable params: 134,340
Non-trainable params: 0
_________________________________________________________________
Number of validation simulations : 50
Length of inputs : 50
Evaluation distance : 50
Weighted absolute percentage error of I at future time step 50 : 11.97%
Actual and predicted values of I at future time step :
[[ … Model: "sequential_6"
_________________________________________________________________
 Layer (type)                Output Shape              Param #
=================================================================
 lstm_8 (LSTM)               (None, 50, 128)           68096

 lstm_9 (LSTM)               (None, 64)                49408

 dense_12 (Dense)            (None, 128)               8320

 dense_13 (Dense)            (None, 64)                8256

 dense_14 (Dense)            (None, 8)                 520

=================================================================
Total params: 134,600
Trainable params: 134,600
Non-trainable params: 0
_________________________________________________________________
Number of validation simulations : 50
Length of inputs : 50
Evaluation distance : 50
Weighted absolute percentage error of I at future time step 50 : 13.86%
Actual and predicted values of I at future time step :
[[… Model: "sequential_7"
_________________________________________________________________
 Layer (type)                Output Shape              Param #
=================================================================
 lstm_10 (LSTM)              (None, 50, 128)           68096

 lstm_11 (LSTM)              (None, 64)                49408

 dense_15 (Dense)            (None, 128)               8320

 dense_16 (Dense)            (None, 64)                8256

 dense_17 (Dense)            (None, 20)                1300

=================================================================
Total params: 135,380
Trainable params: 135,380
Non-trainable params: 0
_________________________________________________________________
Number of validation simulations : 50
Length of inputs : 50
Evaluation distance : 50
Weighted absolute percentage error of I at future time step 50 : 16.78%
Actual and predicted values of I at future time step :
[[… Model: "sequential_8"
_________________________________________________________________
 Layer (type)                Output Shape              Param #
=================================================================
 lstm_12 (LSTM)              (None, 50, 128)           68096

 lstm_13 (LSTM)              (None, 64)                49408

 dense_18 (Dense)            (None, 128)               8320

 dense_19 (Dense)            (None, 64)                8256

 dense_20 (Dense)            (None, 40)                2600

=================================================================
Total params: 136,680
Trainable params: 136,680
Non-trainable params: 0
_________________________________________________________________
Number of validation simulations : 50
Length of inputs : 50
Evaluation distance : 50
Weighted absolute percentage error of I at future time step 50 : 11.14%
Actual and predicted values of I at future time step :
[[ … Model: "sequential_9"
_________________________________________________________________
 Layer (type)                Output Shape              Param #
=================================================================
 lstm_14 (LSTM)              (None, 50, 128)           68096

 lstm_15 (LSTM)              (None, 64)                49408

 dense_21 (Dense)            (None, 128)               8320

 dense_22 (Dense)            (None, 64)                8256

 dense_23 (Dense)            (None, 4)                 260

=================================================================
Total params: 134,340
Trainable params: 134,340
Non-trainable params: 0
_________________________________________________________________
Number of validation simulations : 50
Length of inputs : 50
Evaluation distance : 50
Weighted absolute percentage error of I at future time step 50 : 6.79%
Actual and predicted values of I at future time step :
[[ … Model: "sequential_10"
_________________________________________________________________
 Layer (type)                Output Shape              Param #
=================================================================
 lstm_16 (LSTM)              (None, 50, 128)           68096

 lstm_17 (LSTM)              (None, 64)                49408

 dense_24 (Dense)            (None, 128)               8320

 dense_25 (Dense)            (None, 64)                8256

 dense_26 (Dense)            (None, 4)                 260

=================================================================
Total params: 134,340
Trainable params: 134,340
Non-trainable params: 0
_________________________________________________________________
Number of validation simulations : 50
Length of inputs : 50
Evaluation distance : 50
Weighted absolute percentage error of I at future time step 50 : 7.90%
Actual and predicted values of I at future time step :
[[ … Model: "sequential_11"
_________________________________________________________________
 Layer (type)                Output Shape              Param #
=================================================================
 lstm_18 (LSTM)              (None, 50, 128)           68096

 lstm_19 (LSTM)              (None, 64)                49408

 dense_27 (Dense)            (None, 128)               8320

 dense_28 (Dense)            (None, 64)                8256

 dense_29 (Dense)            (None, 4)                 260

=================================================================
Total params: 134,340
Trainable params: 134,340
Non-trainable params: 0
_________________________________________________________________
Number of validation simulations : 50
Length of inputs : 50
Evaluation distance : 50
Weighted absolute percentage error of I at future time step 50 : 5.32%
Actual and predicted values of I at future time step :
…
